…
2022-07-25 21:26:07.621584: I tensorflow/core/common_runtime/gpu/gpu_device.cc:1525] Created device /job:localhost/replica:0/task:0/device:GPU:0 with 30990 MB memory:  -> device: 0, name: Tesla V100-SXM2-32GB, pci bus id: 0000:62:00.0, compute capability: 7.0
Using Tensorflow version: 2.8.0, and Keras version: 2.8.0.
Found 25000 images.
Tensor("args_0:0", shape=(), dtype=string)
Tensor("args_0:0", shape=(), dtype=string)
Model: "VGG11_model"
_________________________________________________________________
 Layer (type)                Output Shape              Param #   
=================================================================
 input_1 (InputLayer)        [(None, 224, 224, 3)]     0         
                                                                 
 rescaling (Rescaling)       (None, 224, 224, 3)       0         
                                                                 
 random_crop (RandomCrop)    (None, 224, 224, 3)       0         
                                                                 
 random_flip (RandomFlip)    (None, 224, 224, 3)       0         
                                                                 
 conv2d (Conv2D)             (None, 222, 222, 64)      1792      
                                                                 
 max_pooling2d (MaxPooling2D  (None, 111, 111, 64)     0         
 )                                                               
                                                                 
 conv2d_1 (Conv2D)           (None, 109, 109, 128)     73856     
                                                                 
 max_pooling2d_1 (MaxPooling  (None, 54, 54, 128)      0         
 2D)                                                             
                                                                 
 conv2d_2 (Conv2D)           (None, 52, 52, 256)       295168    
                                                                 
 conv2d_3 (Conv2D)           (None, 50, 50, 256)       590080    
                                                                 
 max_pooling2d_2 (MaxPooling  (None, 25, 25, 256)      0         
 2D)                                                             
                                                                 
 conv2d_4 (Conv2D)           (None, 23, 23, 512)       1180160   
                                                                 
 conv2d_5 (Conv2D)           (None, 21, 21, 512)       2359808   
                                                                 
 max_pooling2d_3 (MaxPooling  (None, 10, 10, 512)      0         
 2D)                                                             
                                                                 
 conv2d_6 (Conv2D)           (None, 8, 8, 512)         2359808   
                                                                 
 conv2d_7 (Conv2D)           (None, 6, 6, 512)         2359808   
                                                                 
 max_pooling2d_4 (MaxPooling  (None, 3, 3, 512)        0         
 2D)                                                             
                                                                 
 flatten (Flatten)           (None, 4608)              0         
                                                                 
 dense (Dense)               (None, 4096)              18878464  
                                                                 
 dropout (Dropout)           (None, 4096)              0         
                                                                 
 dense_1 (Dense)             (None, 4096)              16781312  
                                                                 
 dropout_1 (Dropout)         (None, 4096)              0         
                                                                 
 dense_2 (Dense)             (None, 1)                 4097      
                                                                 
=================================================================
Total params: 44,884,353
Trainable params: 44,884,353
Non-trainable params: 0
_________________________________________________________________
None
TensorBoard log directory:  /scratch/project_2006142/logs/cats-or-dogsVGG11_model-reuse-2022-07-25_21-26-08
Epoch 1/100
…
