…
2022-08-03 17:02:14.785179: I tensorflow/core/common_runtime/gpu/gpu_device.cc:1525] Created device /job:localhost/replica:0/task:0/device:GPU:0 with 30990 MB memory:  -> device: 0, name: Tesla V100-SXM2-32GB, pci bus id: 0000:8a:00.0, compute capability: 7.0
Using Tensorflow version: 2.8.0, and Keras version: 2.8.0.
Found 25000 images.
Tensor("args_0:0", shape=(), dtype=string)
Tensor("args_0:0", shape=(), dtype=string)
Using "VGG11_model" pre-trained model with 23 layers
Model: "VGG16_model"
_________________________________________________________________
 Layer (type)                Output Shape              Param #   
=================================================================
 input_1 (InputLayer)        [(None, 224, 224, 3)]     0         
                                                                 
 rescaling (Rescaling)       (None, 224, 224, 3)       0         
                                                                 
 random_crop (RandomCrop)    (None, 224, 224, 3)       0         
                                                                 
 random_flip (RandomFlip)    (None, 224, 224, 3)       0         
                                                                 
 conv2d (Conv2D)             (None, 222, 222, 64)      1792      
                                                                 
 conv2d_1 (Conv2D)           (None, 220, 220, 64)      36928     
                                                                 
 max_pooling2d (MaxPooling2D  (None, 110, 110, 64)     0         
 )                                                               
                                                                 
 conv2d_2 (Conv2D)           (None, 108, 108, 128)     73856     
                                                                 
 conv2d_3 (Conv2D)           (None, 106, 106, 128)     147584    
                                                                 
 max_pooling2d_1 (MaxPooling  (None, 53, 53, 128)      0         
 2D)                                                             
                                                                 
 conv2d_4 (Conv2D)           (None, 51, 51, 256)       295168    
                                                                 
 conv2d_5 (Conv2D)           (None, 49, 49, 256)       590080    
                                                                 
 conv2d_6 (Conv2D)           (None, 49, 49, 256)       65792     
                                                                 
 max_pooling2d_2 (MaxPooling  (None, 24, 24, 256)      0         
 2D)                                                             
                                                                 
 conv2d_7 (Conv2D)           (None, 22, 22, 512)       1180160   
                                                                 
 conv2d_8 (Conv2D)           (None, 20, 20, 512)       2359808   
                                                                 
 conv2d_9 (Conv2D)           (None, 20, 20, 512)       262656    
                                                                 
 max_pooling2d_3 (MaxPooling  (None, 10, 10, 512)      0         
 2D)                                                             
                                                                 
 conv2d_10 (Conv2D)          (None, 8, 8, 512)         2359808   
                                                                 
 conv2d_11 (Conv2D)          (None, 6, 6, 512)         2359808   
                                                                 
 conv2d_12 (Conv2D)          (None, 6, 6, 512)         262656    
                                                                 
 max_pooling2d_4 (MaxPooling  (None, 3, 3, 512)        0         
 2D)                                                             
                                                                 
 flatten (Flatten)           (None, 4608)              0         
                                                                 
 dense (Dense)               (None, 4096)              18878464  
                                                                 
 dropout (Dropout)           (None, 4096)              0         
                                                                 
 dense_1 (Dense)             (None, 4096)              16781312  
                                                                 
 dropout_1 (Dropout)         (None, 4096)              0         
                                                                 
 dense_2 (Dense)             (None, 1)                 4097      
                                                                 
=================================================================
Total params: 45,659,969
Trainable params: 45,659,969
Non-trainable params: 0
_________________________________________________________________
None
TensorBoard log directory:  /scratch/project_2006142/logs/cats-or-dogsVGG16_model-reuse-2022-08-03_17-02-18
Epoch 1/100
…
